asssignment/programming_assignment/coder-helper-kit/submission-tf-idf/best_model.npy (npy, 582288 bytes, 1 tensors)

array f8 [72770]
0	0x3f5f8e4d4ef4a9a4	0.0019260172810598797
1	0x3f914c229f8730d8	0.016891995417425004
2	0x3fadb9cb80791994	0.05805812781595701
3	0x3fa28dc03b23a357	0.03623772355951498
4	0x3fb2e4edefb0805f	0.07380568601411273
5	0xbfb7e74225b6807b	-0.09337247296071098
6	0x3fb7871610797ff0	0.09190500166141624
7	0xbf9f3cbb3a123ce1	-0.03050510923327188
8	0xbf855f08a08718a1	-0.010435168646733496
9	0xbf8f449b20139029	-0.015267574230570418
10	0xbf573b63e06cef03	-0.001417968307307172
11	0x3f9a1b22d261d25d	0.025494140711503344
12	0x3fb00214151c8fe7	0.06253171458644112
13	0xbfb032eead9022c4	-0.06327716576937364
14	0x3fae9e9ce81bf7f2	0.05980387051930326
15	0x3f774ed29f942f10	0.005690405604820162
16	0x3fbb8b61451099e5	0.10759551941064378
17	0x3f9bc791ddda3a8f	0.027128485837745017
18	0xbf8b911f042e77c8	-0.013460390391454427
19	0x3fc2e9e2faa5f270	0.14776265371974118
20	0xbf9157af267e3a8b	-0.016936051105910493
21	0x3fa6f0f0d0d6158b	0.04480698155661419
22	0x3fbdd02f73d10399	0.11645790650892564
23	0x3fad0e0996f83288	0.05674772231950437
24	0x3fc70d9d57fad33e	0.18010298534286479
25	0x3fb108f32ea7c4a3	0.06654281510397424
26	0x3f8032be8ab89fd8	0.007909287079272007
27	0x3fa326731e9cce14	0.037402722823028395
28	0x3fb3abbf1e263c7f	0.07683939443653463
29	0xbf92a2b5887bbb67	-0.01819881101158263
30	0xbfb77080535d3e41	-0.09156038317927885
31	0xbfa055e9cf12fb2b	-0.03190546658287582
32	0x3fac10419f962991	0.05481152604177731
33	0x3faf5f4f53934dff	0.0612740315933955
34	0xbfb86123b26fae1c	-0.09523223024705668
35	0xbf811ded3a88b878	-0.00835786185151853
36	0xbfa5ea34c888dc1d	-0.042802476386377665
37	0x3f8a2ff5dcc1e94d	0.0127867897028763
38	0xbf7f661e40f9be0f	-0.007665746859501179
39	0x3fb779f4eaa35f23	0.09170466164084394
40	0x3f635eb5bbb5308a	0.0023644971348968967
41	0x3fa3fd7610e7c989	0.039043130458497784
42	0xbf7994c031be5602	-0.006245375403428623
43	0x3fa59e95da41abc0	0.04222553529037709
44	0xbfb6c3e7d917c62a	-0.08892678308600269
45	0xbfb975465a61d5dd	-0.09944572168918549
46	0xbfbb2fb1a5fb484d	-0.10619650175365898
47	0x3f9957d44a63855b	0.024749104538277816
48	0xbfaeb213890bf766	-0.059952364425028645
49	0x3f91428e5e3e4a51	0.016855453970104076
50	0xbfc2b567d17deb6f	-0.1461610577497043
51	0xbf9b34fb1b7fd470	-0.02656929354994414
52	0x3f9114bd91a4ce40	0.01668068124236144
53	0xbf7b6c422d138d31	-0.0066950402262791345
54	0xbf83c94c7b87ca2f	-0.009661290664529336
55	0x3f816e8eb35df9a6	0.008511652802323532
56	0xbf6396dca3130ead	-0.0023912724796860325
57	0x3f98e28bf40acc60	0.024301707048561716
58	0xbf91bcae55a03c35	-0.01732132337206967
59	0xbf8dd4fd8799f1f8	-0.014566403103565925
60	0x3fa04f54f920f154	0.03185525456544505
61	0x3fb879bb721baf1f	0.09560748611300739
62	0xbfaed7309cf50878	-0.06023551860791171
63	0x3f8c7868dbf9161d	0.013901538098376293
64	0xbfb3e5d39b3c506a	-0.07772562541896524
65	0x3fbce57dece1294e	0.11287676842872438
66	0x3fa8c1ec60ee86ae	0.04835451777695475
67	0x3f788abbf13170db	0.005991682194771831
68	0x3fa278e3eb228a7c	0.036078569844240044
69	0x3f646d89e9e410ac	0.00249363838440971
70	0xbfae3d40330bffaa	-0.05906105635767685
71	0xbf5ce079ccb61993	-0.0017625035714857503
72	0x3fab43925594c25e	0.05324990553561258
73	0x3f84d2a1c3d16015	0.010167373455416887
74	0xbf941c96335d73e1	-0.019640299687455957
75	0xbfa5da930c8df09a	-0.042683215410734124
76	0x3fac7e7a9ac2be1d	0.055652457610787055
77	0x3faf75d89f7fda8b	0.061445970029969287
78	0x3fc446124db67a48	0.15838841242380597
79	0xbf8687edfad30875	-0.011001452652980451
80	0x3f81cab4c14b590d	0.008687412403940909
81	0x3fcbd545654747e2	0.21744601674305303
82	0x3f9748195487752b	0.022735973152397875
83	0xbf94e61468da07f2	-0.02040893449748888
84	0xbf88b61183e78bea	-0.012066017949967606
85	0x3fa1f92ddc2bd9b2	0.03510421097410034
86	0xbf9235273a02b648	-0.017780888477025664
87	0x3f8085c111782436	0.008067615838642888
88	0xbfb79ccc45edf8ba	-0.09223629672303249
89	0x3fb39f06e74f647d	0.07664530894489192
90	0x3f622728fa2c58a7	0.0022159386002256923
91	0xbfb27929a73bc7a2	-0.0721612962040852
92	0x3fc4921bbf766bff	0.16070887421378185
93	0x3fb18a02c7876e94	0.06851212855638728
94	0xbfb52997ecc9e95f	-0.08266591578459302
95	0xbfa5cd313dc8e6bf	-0.042581118385397236
96	0xbfb5e7984dd04d8f	-0.08556510829685336
97	0xbf916677a19b9306	-0.016992444266082728
98	0x3f9341f93ee1fd5e	0.018806356871661982
99	0x3fc45647102ca03c	0.15888298311006277
100	0x3f9401d9e474874e	0.0195383115470869
101	0x3fa268f1a2fe2ab4	0.035956908365809254
102	0x3f1b9a19d1df21d3	0.00010529310790652968
103	0xbfb7d1b833981096	-0.09304381618136612
104	0xbf9195eb238b2045	-0.017173456234360413
105	0x3fadb3a1e255dc4a	0.05801111114390574
106	0x3f91b7997c76f4a5	0.01730193922206937
107	0x3f944a3946fdc0a9	0.01981439109607722
108	0xbfbeb25a7b6b3de9	-0.11990895760685984
109	0x3fc0f3e2be431288	0.13244280138146203
110	0x3f94e04e242b4dd8	0.02038690658339512
111	0xbfb58a7345a3955f	-0.08414383363886689
112	0xbfb124390c06af4c	-0.06695896667104967
113	0x3f8eafb1e46f0aa7	0.014983548911805157
114	0x3f655a73cec28f62	0.0026066076153074417
115	0x3f8418358be1d34d	0.009811800319064945
116	0x3fbf4fecb06367da	0.1223133021007067
117	0x3fb2c85dd84566f2	0.07336985139900401
118	0x3fb1a6a149a62cf1	0.06894882247995661
119	0x3fa53f7ba9b63dce	0.04149996229818563
120	0xbf9e678c9b7da2c6	-0.029691884031680237
121	0x3fa00a3aa4dcd214	0.03132804167254136
122	0x3fa4c650dce9d6a4	0.04057553002068673
123	0x3f742d9d2801e2fa	0.004926313296998991
124	0x3faa238690798fc7	0.051052289138879874
125	0xbfb7ac137e80d2d6	-0.0924694236608262
126	0x3f36ff4b0093cef7	0.0003509100066161198
127	0xbfb951c8ee19601c	-0.09890418827978958
128	0xbfaaf3b6971e794c	-0.052640634486339793
129	0xbf80cfdd5a4a13c0	-0.008208970373070446
130	0x3f62e57d064decd0	0.0023066942107426783
131	0xbfb5f6f63acb058c	-0.08579958854081421
132	0xbf827cf6f751f40c	-0.009027413771258729
133	0x3f9da46d7726d18d	0.028947554013670596
134	0xbf7abf6755d49a82	-0.006530192998332242
135	0xbfa4115df57c4a32	-0.03919499990128762
136	0xbfa11685639ad864	-0.0333749469840974
137	0xbfaad9c0c31763d5	-0.05244257337080397
138	0xbfb16e044bb85638	-0.06808497284540571
139	0xbf83d9f49541d690	-0.00969306068894163
140	0x3fa5e4de72ee4310	0.04276175644839075
141	0x3fa4e90f2e129c19	0.04084060132418461
142	0xbf90dac1549a2a3e	-0.016459484852513244
143	0x3fb05bc40598b8d4	0.06390023361811653
144	0x3fbb0300d245e8ad	0.10551457532520443
145	0x3fb1a2bf1e81f27f	0.06888956541838274
146	0x3fc02072275cf017	0.12599017068885196
147	0xbfc6da0ca4ca2ada	-0.17852933927891607
148	0xbfa507df15dd4bb8	-0.04107567922496663
149	0x3fa32bbd210562f5	0.037443075447930164
150	0x3f86bef00977e11e	0.011106372155140817
151	0x3f93e8039fa42afd	0.01943975126145413
152	0x3f6ad3d91b2e723e	0.00327484515714918
153	0x3fafa12ccf2a2e12	0.06177654293886915
154	0x3fab0b6f29af54a5	0.052821611250388124
155	0x3f8af01e0ccef983	0.013153300062069167
156	0xbf693f6b564308b4	-0.00308199848413534
157	0xbfa268c0a73d7213	-0.03595544854644941
158	0x3fb64acad8d4f595	0.08707874101397402
159	0x3f8e6972791bd1ab	0.014849561997359503
160	0xbf8db74716c3c1b5	-0.014509730703566296
161	0x3f0ab1f9556c94aa	5.0917073784164976e-05
162	0x3f8147fd66bb78f1	0.008438090989724563
163	0xbfb02c6126fb7aa9	-0.06317717744557662
164	0x3fbd06218b9ada19	0.11337480219194908
165	0x3fd9c61f20ecbcdf	0.40271738257702155
166	0xbf4382c605d14d65	-0.000595423403533618
167	0x3f9dfeb1d282341d	0.029291895364213717
168	0x3f8aac861cee5573	0.013024375684646405
169	0x3f8fda14f7eefeb3	0.015552676979381763
170	0x3faa6a25a4237a0b	0.051591087614486573
171	0xbf68d1706e21902a	-0.0030295558836304264
172	0xbfad910b673953cd	-0.05774722704942512
173	0x3f6dd173a076d723	0.0036399134002874796
174	0x3fc0da4dffbf86fb	0.13166213023855974
175	0xbf959fd6ba4f9084	-0.021117549058445664
176	0xbf62f7659f9e6d87	-0.002315233691616295
177	0x3f6d02a1501e28a5	0.0035412932056192053
178	0xbf56c900f565c70a	-0.001390696464650567
179	0xbf95e7282abc9d08	-0.02138960610241461
180	0xbfaeedc263506edf	-0.06040770971614306
181	0x3fbba13ded9d0d57	0.1079291062460944
182	0x3f97c083ee9005b2	0.02319532531328656
183	0x3f8a137423f3f301	0.012732417437740564
184	0xbf96c711aec5cf8d	-0.022243763248709626
185	0x3fbd93be45e72d33	0.11553563315026309
186	0xbf9691ccddef1b2a	-0.022040558858658667
187	0x3fba3e688aff04d7	0.10251477616749881
188	0x3f9da8c4a81b7df7	0.028964112053356996
189	0x3fa71de2c274ec17	0.045149885404008376
190	0x3fa8e91e504eb8fe	0.04865355234447753
191	0x3f9ecafe22cba6ae	0.030071230767964856
192	0x3f741d4de7ac77f1	0.004910759273824881
193	0x3f8c3e88e84835c3	0.01379115065449355
194	0xbf8714a8e8ee1207	-0.011269874199350672
195	0x3fb0c4406e59dded	0.0654945630466199
196	0x3f666baaade76df6	0.002736886365921394
197	0xbf95057d502c4983	-0.020528753298159962
198	0xbf85ff3ce465995e	-0.010740733833426826
199	0xbf60b0da28c20aa6	-0.0020374546930395808
200	0xbfa9f39f11304337	-0.050686808441361135
201	0xbf8de63617f38cc3	-0.014599249463975622
202	0xbf81d7d62a3fbea6	-0.008712456859910244
203	0x3f9885fa3dfc35f8	0.023948583634640003
204	0xbfae7cd650d56a2d	-0.059546182029141505
205	0x3f7d55e934eee721	0.007162009204813719
206	0x3f90a26f73f89092	0.016244641736321848
207	0x3f966e0a373a3574	0.021904143925487188
208	0x3f88fa3a0ac17397	0.012196019604908943
209	0xbf830807edaeffc4	-0.00929266161062959
210	0xbfac68bd0f2d0ea1	-0.05548659143690072
211	0x3f65e65406ca6930	0.0026733056204878633
212	0xbfb1497ea1e62f83	-0.0675276894818904
213	0x3fa518d59dc3da4a	0.0412050967296876
214	0xbf861914947984f3	-0.010790024548614307
215	0x3f87b424facc4b42	0.01157406702399089
216	0x3f94a3ffe2caa4f2	0.020156858651408656
217	0xbfbd492141398d07	-0.11439712374117415
218	0x3fb404c3916ce462	0.07819769192146134
219	0xbfb20cd03dca0464	-0.07050801762126607
220	0xbf9de9639e8d2456	-0.0292106214067512
221	0x3f6076690a815cac	0.0020095874388449033
222	0xbf54bd6ebab0899d	-0.0012658673611062106
223	0x3fc4a7891e52fed1	0.1613627813403498
224	0x3f77b616cd2006c0	0.005788888041935614
225	0x3fa6af1bd118a964	0.044304723047690314
226	0xbf73b0182ac7b16d	-0.0048066085841863395
227	0x3f5432abe1bb9c9d	0.0012327841313266926
228	0xbfaf05fcd65897fe	-0.06059255711106458
229	0x3fb13b4cdb5c320c	0.0673110995814527
230	0xbf99c8ae6d94cbee	-0.0251796011336402
231	0x3fbede50a9ab47c0	0.12057975904761431
232	0x3fce1a324d86a9ef	0.2351744535965987
233	0x3f9d8248db40f595	0.028817308790384983
234	0xbfa31fe279bc6b4a	-0.037352635727265396
235	0xbfad959bcd60e995	-0.05778204805433799
236	0xbfc82f4a80d2e58e	-0.1889432076475654
237	0x3fc7a4a10043fb0b	0.18471157563177373
238	0x3f9eb6e316f50cfc	0.029994533802221376
239	0xbf759eef2e086412	-0.005278524681238588
240	0xbfb5ca3ea634c653	-0.08511725957648623
241	0x3fb8f35833cc28c6	0.09746314301097234
242	0x3faf37ebd044db66	0.06097351949067935
243	0x3fc053e9a8f338f7	0.12756081342235578
244	0xbf9e77d4f984be1a	-0.029753997544672207
245	0xbfa0a25a955e3000	-0.03248866151179186
246	0xbfa7c2037bfa8d70	-0.04640208137905233
247	0xbfa3a6dc7767d2ec	-0.03838242490374974
248	0x3fc0f5bdcd007222	0.13249943265772496
249	0x3fb192197b256f59	0.06863555199146044
250	0x3f8703618a4042a4	0.011236917525850494
251	0x3f9f4ea4ee00ce06	0.030573441530760824
252	0xbfaf75a6fe14235a	-0.061444490924322095
253	0x3f92dc67baaa3869	0.018418904083369023
254	0x3fa734886e10b741	0.04532266944475661
255	0xbfb31334d7316bda	-0.07451181653725261
