asssignment/programming_assignment/coder-helper-kit/submission/idf_model.npy (npy, 582288 bytes, 1 tensors)

array f8 [72770]
0.0003652522214319965 0.0008641977010190371 0.0026848996656576537 0.001243451897195754 0.001759083711315974 2.653443014955441e-05 0.002668463177091933 -0.0031068556317481203
0.004973631113311587 0.000613021121153977 -0.0009421980678640835 -2.6448446911250203e-05 -0.0005021705013769976 -0.000753557270352342 0.0009616741336165297 0.00039481144926885434
0.015041166455380403 0.00022329344716989042 -0.0014188490180956808 0.0019387388457514831 0.00017664020064152696 -2.819046010366027e-05 -0.00026614683177524366 0.005074607144559151
0.003281676248103339 -0.005584509346259376 -0.0003564185566840541 -0.0006516307957066577 0.001414286114692411 -0.0008851927387540127 -0.007273740138941713 -0.000931333253823266
-4.333923079720654e-06 0.0010789586733194179 -0.0021861249844272283 -7.034098357552431e-05 -0.005021526008729036 -0.0008239337263611898 0.00012248079170649006 0.001683801099046587
7.317627719984734e-05 0.0007134021968647054 -4.066876834922697e-05 -0.0014779355341463425 -0.0004834107624397386 -0.005910944047447542 -0.003129418157931178 -0.0016475572840586221
-0.0016451457354848765 -0.0001563997751675007 -0.008838773568539673 -0.0030480418875661964 0.005478754736268409 -2.8249864837178183e-06 -0.00041680301469678533 0.00030722565144118024
0.00043058600476645465 0.006684182855885959 -0.00027669230340002726 0.0008490699813643636 0.0032885131047150126 0.0009725943945045498 -0.0028657006997608275 7.904310083564071e-05
-0.000928547566851588 0.0024644435395449094 0.0019396734296209207 0.0005776399719174252 0.0010399103494806057 7.4872231140092e-05 -0.0009447971031715019 2.7957056286606767e-05
0.00119683117690469 0.000296457253826081 0.00026531897184692624 -0.0011011586903432187 0.00023816586134437048 0.0016690653181478932 -0.0003320531038889044 -0.0006674195774451036
0.00011516573364250565 0.006164043880792484 0.007633031468363469 0.0002947908740666374 -0.0003480845631295797 0.0008024427283886739 -2.266294581246984e-05 3.051972577827283e-05
-0.007366887980838514 0.0022147872901749316 -8.400047378404732e-05 -0.0035400596697026713 0.004761383338729236 0.0010867554790058777 -0.002530015307106654 -0.005139442810896811
-0.007575318175854133 0.00013212827764651672 0.0008297544192736373 0.004018322081844871 0.0007156894312095684 0.001022984211533592 0.0010783603247806377 -0.007415962151246226
-0.0001095280301500286 -5.1850594185499475e-05 0.00044081440132622105 -0.0001388665778875899 -0.0006437400978433746 0.003934993688533924 0.0004013107446711782 -0.004060606390278071
-0.0003165866232063768 0.0002344890602058053 0.00010081202586415383 8.817747752386173e-05 0.0016035197990877184 0.0025978846648794848 0.0018894813978119459 0.00018662537017463657
-0.0013188610618339698 6.901499657468936e-05 0.00022210976122118915 -0.0028436604165440952 -0.0006269268598256782 -0.002624398625396297 -0.0017147350519119157 -0.0012278338253919195
-0.005410856636803901 -0.0023789296578321413 -0.0011683526740344109 -0.0008760004298942119 -0.001772491790686785 -0.0005151171109143138 -0.00033000901151395215 8.806777345606633e-06
0.00014285805296307795 -0.002411654645204999 -0.001209770153052247 -0.00013206980468517414 -0.009339258454433159 0.0006139638377229758 0.0001237026626768549 -0.00041464811855121864
0.0019621773076467044 0.0030176328065586837 0.005125929313726768 -0.004871945840898976 -0.0007805646666488494 0.0025187004331708824 -1.3395182567298525e-05 0.0001878470169546376
0.000162085808176005 5.316473884657578e-05 0.0005614527096182477 0.0003277589544982519 0.0002150802548160131 -0.00043477831939771555 0.0011951055297150896 0.00011722290171576652
-0.0017242576905928946 6.529652364423765e-05 0.00010480772547693573 0.0004294740151083367 0.002541192813684771 0.010958125016375359 0.00047801971489974324 0.0016042295724473749
0.00023902438253723535 0.0015490665561861822 0.0007695550626742391 0.0001155364051630692 -0.002430235144122125 7.496281553158323e-05 0.005039531142408394 0.0018012902598327524
0.00013527662356627594 0.0001109038912716798 0.008054296284429377 7.081209330237093e-05 -0.0013323522354118616 0.001401806089231312 0.0007353217230927075 0.0007890074064811649
4.3197569209628725e-05 0.0006810361181499809 0.0011560497774448174 0.004888372070533871 0.003133288216870172 0.0021044834053121487 0.004551909390790865 0.0004611127893879385
0.0002573582224286508 -0.00448919729516079 -0.0034901325330403596 0.0014259454111930016 -0.0001947500651618126 -0.00021408500936633584 -0.0004301555480859768 2.509406664143379e-05
-0.0002934346742588973 0.001893342501424511 -0.0008931426550896694 0.00018943103046315055 -0.001091410966176931 -0.0002038664072599638 -0.0005045071856894526 0.0002164884450363143
0.000451346029853102 -9.315841869549115e-05 0.0002141250985011439 4.2125195326325725e-05 -0.0011464015124499345 -0.0004299672807655729 -0.0005200633127882022 0.000922055385061848
0.0010491010090382914 -0.004229118033160151 0.000888510145121699 -0.0009728864757360794 0.00010589354238711536 -0.00033947736027767995 -0.0007291792423136167 0.0019106239342048814
-0.00043978314897960693 -0.001067272102159706 -0.0012174755910893372 3.421040106357437e-05 -0.0044829530463544355 -0.00018874049253449782 -0.00023026307537592545 0.00172376593170366
0.0041121798466042525 -0.0008553110959193858 0.0003087927479311467 -0.0015409443511164166 -0.005968500227162113 -0.0013010753936950775 -0.0009467080339262719 -0.000721495008061245
-0.0033270276069526923 0.0017367050080548362 -0.0029999453143547904 0.0003384412364318309 -0.0006531862735016405 8.297664841786775e-05 -0.0016787671043995641 0.0018559256298161405
0.002107182457631089 0.0016304120650651231 0.0002051235251863242 0.00028026651486909917 -0.00010683672166504084 0.00017471687085637567 0.0015779151466576513 -0.0012292555477705655
00000000: 2a16 8958 eaef 373f 33de 7b6e 6a51 4c3f
00000010: f5ad 3988 a4fe 653f bcff e24e 6a5f 543f
00000020: 85b0 b4c0 21d2 5c3f 8e05 c627 c8d2 fb3e
00000030: 3d26 7042 2cdc 653f 86b5 9d6a 8c73 69bf
00000040: 5eac 95ef 3a5f 743f 5bfa 63d5 6416 443f
00000050: 1a6f a4f1 badf 4ebf e608 a66e b3bb fbbe
00000060: 36ef b1f0 8274 40bf 1649 79ea 4bb1 48bf
00000070: fb79 057a 1b83 4f3f 160d 4043 d6df 393f
00000080: 650a 2830 e7cd 8e3f f292 231b 7c44 2d3f
00000090: cf1a 5d88 153f 57bf 57fc 07fc a8c3 5f3f
000000a0: 937a 13c5 0f27 273f 4a3f d2aa 518f fdbe
000000b0: 358d 3bf0 3371 31bf 4068 9d7b 1cc9 743f
000000c0: 9c59 2c85 2ce2 6a3f c72c 1a50 c8df 76bf
000000d0: c7e3 6d0b b65b 37bf 26bd 727a 465a 45bf
000000e0: 09d0 0627 f22b 573f 209d 8aee 8801 4dbf
000000f0: b8ff 42c0 11cb 7dbf b3e1 f4ee 9684 4ebf
00000100: 8187 7bb4 832d d2be fb15 cd0d 7bad 513f
00000110: 98c7 04ea a2e8 61bf c0e6 66e5 8070 12bf
00000120: 576f bc9f 7391 74bf e951 5334 a8ff 4abf
00000130: 8b2c 52fd c50d 203f f7e0 d0a9 5f96 5b3f
00000140: ed65 a2de c62e 133f 72e9 5d8d 7360 473f
00000150: 0a99 7f3d 7852 05bf 556c 3932 e936 58bf
00000160: e867 4b6a 49ae 3fbf 9ad4 f4f5 1236 78bf
00000170: a232 9a94 dda2 69bf d4f7 cf29 5bfe 5abf
00000180: 674f 63c8 3df4 5abf f0a5 c1d6 e77f 24bf
00000190: bb1b 4f1b 101a 82bf 9279 2a07 35f8 68bf
000001a0: bf28 a406 e470 763f a02f 5bbe 9cb2 c7be
000001b0: 78b5 2651 cb50 3bbf 8452 1c20 6422 343f
000001c0: 7e92 ffce 0838 3c3f 43a4 43ac df60 7b3f
000001d0: 5a8a e764 2022 32bf 2d20 a7e6 83d2 4b3f
000001e0: 0c4b 9707 83f0 6a3f 970a ef8e b6de 4f3f
000001f0: 779c 2359 cf79 67bf 6766 db21 7eb8 143f
00000200: bd24 59b7 386d 4ebf 2944 f70c 5030 643f
00000210: ec34 7d7c 94c7 5f3f f64c e564 98ed 423f
00000220: 504e 463c b309 513f 9fba f122 97a0 133f
00000230: 33bf 6954 88f5 4ebf fcbc 7247 aa50 fd3e
00000240: 6b75 dfb0 df9b 533f b466 b835 ba6d 333f
00000250: 3e82 9d4e 5063 313f 03c6 0324 980a 52bf
00000260: 2a5c c62b 8537 2f3f 7b8f 343d 9158 5b3f
00000270: 95d4 c338 edc2 35bf 57cc 00a1 b8de 45bf
00000280: 3f8f 0b3d a430 1e3f 6bd8 10ee 773f 793f
00000290: fd54 6a48 d043 7f3f b26b cc29 c551 333f
000002a0: c13c 9cd0 e3cf 36bf 2b6b 3ea3 604b 4a3f
000002b0: 2c28 0cc7 89c3 f7be 583d f5ca 4900 003f
000002c0: 8448 37ef bd2c 7ebf 7721 53df be24 623f
000002d0: f631 a826 2d05 16bf 8b7c 3b10 0b00 6dbf
000002e0: 13b5 931b ac80 733f ddd6 6dcf 2ece 513f
000002f0: 5bae 13a0 d3b9 64bf daee adac 180d 75bf
00000300: 9e45 27fd 4b07 7fbf a9be 4243 7d51 213f
00000310: 344e 180c 7c30 4b3f 3233 d21e 8475 703f
00000320: 51e3 be59 a373 473f 5832 e7ee b4c2 503f
00000330: d4d4 0195 f8aa 513f 3512 872e 3360 7ebf
00000340: c592 de3a 4db6 1cbf 8b60 b6d9 442f 0bbf
00000350: 1405 f36f a3e3 3c3f 8298 31d2 9633 22bf
00000360: f316 6c55 1518 45bf a24a 3cd3 231e 703f
00000370: 4f0e 1e86 e04c 3a3f 93ea 5eba daa1 70bf
00000380: 8eeb 6931 71bf 34bf 52aa 90b0 25bc 2e3f
00000390: 2711 a16a 616d 1a3f c6bb 6187 7d1d 173f
000003a0: a5d2 1d46 a645 5a3f 8cfd 94b5 2848 653f
000003b0: 7415 d733 0ff5 5e3f f90b 17b9 1b76 283f
000003c0: b113 3a48 b49b 55bf d02f e69c 8417 123f
000003d0: 1de3 3552 c41c 2d3f 6ff8 ad8f 964b 67bf
000003e0: d65b 122e 0b8b 44bf cf5c 9148 c37f 65bf
000003f0: 8776 08be 1e18 5cbf c2af ff87 e81d 54bf
00000400: 3951 c6c4 b129 76bf e852 8e22 fa7c 63bf
00000410: c86a 9c21 6d24 53bf bc7f 4d99 6cb4 4cbf
00000420: 13d9 7f91 5e0a 5dbf f6ee 8e92 1de1 40bf
00000430: 4032 6ee9 a1a0 35bf 9604 0843 1a78 e23e
00000440: 8f6c b554 85b9 223f 1ea7 923a 9bc1 63bf
00000450: 31e8 8dcf 24d2 53bf 6ce1 dbfb 864f 21bf
00000460: f7a2 0b0d 7620 83bf 3a21 4e4d 4d1e 443f
00000470: 1a07 00c8 c536 203f 5452 c81b a42c 3bbf
00000480: 1581 b0eb fb12 603f 586d e546 6fb8 683f
00000490: 609b 392c edfe 743f de69 df00 9bf4 73bf
000004a0: ab12 9bdb d993 49bf 96fc a4ff 18a2 643f
000004b0: 724a a5df 7b17 ecbe 16f2 c496 199f 283f
000004c0: 0ff0 927d b23e 253f 1e58 6584 a6df 0b3f
000004d0: 2af7 5583 ce65 423f bb1a 94fd e17a 353f
000004e0: bc84 2652 e530 2c3f 28c5 aea9 5e7e 3cbf
000004f0: 30d5 95ca a294 533f 859a e91d b2ba 1e3f
00000500: 7db3 0599 0f40 5cbf c231 00bc f91d 113f
00000510: 87de 5e03 8779 1b3f 7473 70d9 6025 3c3f
00000520: a226 e280 44d1 643f b005 91a4 3671 863f
00000530: c0a3 d60a d753 3f3f e9ca 2163 a048 5a3f
00000540: fee4 d7cf 5354 2f3f c070 ae8c 4161 593f
00000550: 41e6 cfe9 7e37 493f 0208 a253 8449 1e3f
00000560: 2c26 e68e 92e8 63bf 9dab 4f5d aba6 133f
00000570: 74e0 19d7 54a4 743f 8de3 6bb0 2883 5d3f
00000580: 9da0 2759 21bb 213f cf44 1358 a212 1d3f
00000590: db43 1259 c57e 803f 7b78 e47f 1e90 123f
000005a0: 6e3c c851 4ad4 55bf 51cf bfd3 99f7 563f
000005b0: fd2d 5960 5318 483f 16e9 e980 acda 493f
000005c0: c7e5 192d e1a5 063f d3b0 6bed f150 463f
000005d0: e6a8 25ff d2f0 523f ae28 c762 d405 743f
000005e0: bfe9 734d fbaa 693f 5f46 d3ec 6b3d 613f
000005f0: 001e 7cdf 05a5 723f a3f4 a559 3038 3e3f
00000600: 7b66 1026 c1dd 303f c68e 16b9 4363 72bf
00000610: 6bd4 d1a2 5697 6cbf e28d 0b3a d95c 573f
00000620: cfa3 4f52 ba86 29bf dbfa 423a 800f 2cbf
00000630: b575 df02 d030 3cbf 5592 f720 2350 fa3e
00000640: 3e1f 5754 043b 33bf 9a70 eb07 4105 5f3f
00000650: 3f54 443f 3944 4dbf 20c8 4f29 40d4 283f
00000660: ff99 ff99 b5e1 51bf b62a 971a 9fb8 2abf
00000670: 0d26 7bee 1c88 40bf 0672 3195 2560 2c3f
00000680: 5459 f96f 5494 3d3f 12dc 5272 c16b 18bf
00000690: 848d 3397 d810 2c3f 6346 abb0 f215 063f
000006a0: fe79 4240 5bc8 52bf 6fd5 c368 a72d 3cbf
000006b0: 1b90 cb75 9b0a 41bf fc1b aadc c236 4e3f
000006c0: 718b 89a1 3f30 513f e725 4b3a 8d52 71bf
000006d0: e9a7 fa01 5d1d 4d3f 6bf6 49cc 29e1 4fbf
000006e0: 7ee3 a434 65c2 1b3f 77f4 fd28 7c3f 36bf
000006f0: 3d0f d47f cce4 47bf 05c9 fdd3 bc4d 5f3f
00000700: 19c6 003e 56d2 3cbf 83d5 94b1 767c 51bf
00000710: 74ea 3b76 76f2 53bf ec0d 156e a4ef 013f
00000720: 44d9 938b b75c 72bf d302 597c 14bd 28bf
00000730: 7986 a5c1 582e 2ebf 3c3a 5e93 ff3d 5c3f
00000740: 608f 4ddf eed7 703f 2c23 aa97 de06 4cbf
00000750: c856 ecc0 ae3c 343f 42ba f365 303f 59bf
00000760: 0360 8214 6d72 78bf 4ac8 fe10 1b51 55bf
00000770: 1b98 b405 9005 4fbf 5e72 5fbb 56a4 47bf
00000780: ffd6 7858 4841 6bbf f0e0 97cd 4474 5c3f
00000790: 3368 7a60 5793 68bf 4293 c60a 1a2e 363f
000007a0: 17cc 68d7 5267 45bf 5cca 13f7 77c0 153f
000007b0: e55e e773 4281 5bbf 4b4d 91f8 5068 5e3f
000007c0: 095a c0f7 1443 613f 99be e69f 71b6 5a3f
000007d0: ac41 25aa cde2 2a3f 718e f983 175e 323f
000007e0: 740a fae6 b001 1cbf 9a83 267e 86e6 263f
000007f0: a436 d97c 41da 593f 890a 1218 df23 54bf
